checkpoint01.pth (torch_old, 28391 bytes, 6 tensors)

fc1.weight f4 [64, 37]
0.046347357 0.11832464 -0.0543938 0.061162993 -0.04736148 0.29802477 0.037853137 -0.050709788
-0.24190736 -0.8536035 0.15999636 0.1963323 0.053000774 -0.023449678 -0.40976518 -0.12037507
0.12067966 0.14226319 0.041227743 0.20829801 -0.12718302 -0.047085453 -0.03439877 -0.08737687
0.10274061 -0.016531248 -0.053228248 0.15996368 0.13867956 0.22613706 -0.03317836 -0.07832715
-0.05448896 -0.043442078 -0.008073519 0.0428109 0.0096792625 -0.058582164 0.05580731 0.04090692
-0.112192854 -0.30152205 -0.12299013 -0.022354312 0.06553607 0.05580502 0.57171446 0.064873345
0.020922253 -0.046155542 0.04853673 -0.20904538 0.124319226 0.07789037 0.108639866 -0.050123736
0.028097877 -0.060406886 0.13259792 -0.02307078 -0.06711894 0.0024321675 -0.09468403 0.03528852
0.043288775 0.15649436 0.16719274 0.18825485 0.06269849 0.035115127 0.086906776 0.45895135
0.038648024 0.022817712 0.1505128 0.06353039 -0.09186514 0.14404394 0.3247305 0.14373273
-0.056046244 0.17028178 0.05119653 -0.0418315 0.0346628 0.118899204 0.08591247 0.15960772
-0.06261991 0.055455185 0.091674335 0.09349679 0.17394666 -0.049729433 0.19699913 0.013399447
-0.0848427 -0.09910824 -0.41859502 0.17838854 0.20413572 0.18495731 0.22538589 0.15275766
0.28532308 -0.03977047 -0.012065289 -0.028347064 -0.21354036 0.096807 -0.010545734 0.16760987
-0.10691322 0.14978905 -0.0063697826 -0.44987845 -0.0061796815 0.12648056 0.09042786 0.24029192
0.17942847 0.11332405 0.025963062 -0.071186356 -0.05568375 -0.083708644 0.12625559 0.2355546
0.08113792 -0.08110047 -0.23262016 -0.04572122 -0.038990088 0.15183358 0.24207897 0.34018686
-0.09138531 -0.1319352 0.01808708 0.007610753 0.27260637 0.22933859 0.00217507 0.08538913
0.18011121 -0.14065748 -0.021606967 -0.004179262 0.17703743 0.19744319 -0.28933373 -0.24959216
-1.1018215 -0.10943511 -0.1691003 -0.034413666 -0.08789041 -0.008488924 -0.030493291 -0.0049155736
0.097968675 -0.07239043 0.004741551 -0.23573695 0.042307157 -0.0107725095 0.08853077 0.11223849
0.03637226 -0.08840568 0.19964562 0.11502052 0.31163037 -0.10054601 0.3111868 0.085763454
0.24373771 -0.042998545 -0.044720147 -0.055051897 0.0023037228 0.035451595 0.24863842 0.049607735
-0.020397834 -0.020454202 0.034018748 0.053147018 0.019831939 0.13887528 -0.048623595 0.16947173
-0.107090004 0.059277296 0.16363001 0.25690702 0.087115906 0.01027475 0.16328429 -0.29582995
0.07439931 0.089121394 0.034485515 0.112650715 0.035184354 0.19558294 0.055974882 -0.17836566
0.016438063 -0.41311878 0.21197143 0.06446926 0.18826942 0.04261602 -0.17751496 0.29435328
-0.15363947 -0.1046351 -0.052987915 -0.67334044 0.038093824 -0.0018230914 0.22240308 -0.10709559
-0.001398 0.020537898 -0.39006728 -0.08281459 -0.17921694 0.12811364 0.31977296 0.49370107
-0.012125984 -0.03051927 0.00847151 -0.10313241 -0.17248176 0.10579722 0.039712 0.007138281
0.18485765 0.20612143 0.07771783 0.07466506 0.1259646 0.124125265 0.1850139 0.16600761
-0.106996484 -0.11998713 -0.08675519 0.048617076 -0.16648173 0.040597416 0.036970083 0.07818598
00000000: bad6 3d3d 3054 f23d 09cc 5ebd 0c86 7a3d
00000010: 1cfe 41bd b496 983e e40b 1b3d 11b5 4fbd
00000020: 90b6 77be c285 5abf 16d6 233e 560b 493e
00000030: 5717 593d 8a19 c0bc becc d1be 3487 f6bd
00000040: e626 f73d 71ad 113e 6cde 283d 134c 553e
00000050: 443c 02be addc 40bd bae5 0cbd a5f2 b2bd
00000060: ab69 d23d 8a6c 87bc dd05 5abd 85cd 233e
00000070: 0402 0e3e 7990 673e 08e6 07bd fc69 a0bd
00000080: d12f 5fbd 52f0 31bd cb46 04bc 7b5a 2f3d
00000090: c595 1e3c daf3 6fbd 3596 643d 048e 273d
000000a0: 5ec5 e5bd 1961 9abe 40e2 fbbd 6420 b7bc
000000b0: c637 863d ce93 643d e15b 123f 51dc 843d
000000c0: 2565 ab3c 980d 3dbd 73ce 463d fe0f 56be
000000d0: 149b fe3d fc84 9f3d 947e de3d 8c4e 4dbd
000000e0: 852d e63c 366d 77bd c0c7 073e effe bcbc
000000f0: a875 89bd 0065 1f3b b3e9 c1bd b28a 103d
00000100: 924f 313d 0f40 203e 9334 2b3e e1c5 403e
00000110: 1168 803d e1d4 0f3d 2efc b13d acfb ea3e
00000120: 644d 1e3d 36ec ba3c 0720 1a3e 391c 823d
00000130: ca23 bcbd 4180 133e 1343 a63e ac2e 133e
00000140: bf90 65bd 595e 2e3e 74b3 513d 8257 2bbd
00000150: 95fa 0d3d 6d81 f33d e1f2 af3d 3570 233e
00000160: de3e 80bd fa24 633d c1bf bb3d 3f7b bf3d
00000170: 131f 323e 17b1 4bbd 24ba 493e 5b89 5b3c
00000180: 02c2 adbd 43f9 cabd 1652 d6be 7cab 363e
00000190: f408 513e 7365 3d3e 8fcb 663e 816c 1c3e
000001a0: de15 923e 5ce6 22bd 7dad 45bc 1a38 e8bc
000001b0: 53aa 5abe c042 c63d 04c8 2cbc eca1 2b3e
000001c0: 51f5 dabd 4d62 193e 9cb9 d0bb 7856 e6be
000001d0: ed7e cabb 1f84 013e 3e32 b93d 160f 763e
000001e0: 19bc 373e 7116 e83d 7db0 d43c 27ca 91bd
000001f0: a514 64bd 706f abbd 2549 013e 3a35 713e
00000200: a32b a63d 0118 a6bd fb33 6ebe 2d46 3bbd
00000210: 12b4 1fbd 437a 1b3e 8de3 773e f92c ae3e
00000220: 3928 bbbd 051a 07be 5b2b 943c a063 f93b
00000230: 1093 8b3e bcd7 6a3e 9f8b 0e3b 7fe0 ae3d
00000240: 136f 383e 8408 10be 1801 b1bc 31f2 88bb
00000250: 4d49 353e 8c2e 4a3e 8d23 94be 1695 7fbe
00000260: 7d08 8dbf 841f e0bd a128 2dbe 58f5 0cbd
00000270: e3ff b3bd 2115 0bbc 11cd f9bc d212 a1bb
00000280: cda3 c83d 6f41 94bd 035f 9b3b 0765 71be
00000290: 454a 2d3d 2e7f 30bc 9f4f b53d 4bdd e53d
000002a0: 14fb 143d 0a0e b5bd e76f 4c3e e18f eb3d
000002b0: 048e 9f3e 11eb cdbd e053 9f3e c0a4 af3d
000002c0: 6196 793e 3e1f 30bd 792c 37bd 197e 61bd
000002d0: 0efa 163b b135 113d 129b 7e3e 7b31 4b3d
000002e0: 5c19 a7bc 928f a7bc 3e57 0b3d b0b0 593d
000002f0: 9776 a23c 5235 0e3e 8929 47bd ff89 2d3e
00000300: 0152 dbbd c0cc 723d a08e 273e 5189 833e
00000310: d369 b23d 6d57 283c ff33 273e 0677 97be
00000320: aa5e 983d 4785 b63d af40 0d3d 6bb5 e63d
00000330: 781d 103d e546 483e eb45 653d 7da5 36be
00000340: 1ea9 863c 4e84 d3be 0a0f 593e 7608 843d
00000350: b3c9 403e 238e 2e3d 7bc6 35be 79b5 963e
00000360: aa53 1dbe ed4a d6bd db09 59bd 0a60 2cbf
00000370: 4508 1c3d ccf4 eeba a2bd 633e ef54 dbbd
00000380: 193d b7ba 183f a83c e6b6 c7be b29a a9bd
00000390: a584 37be 3930 033e 48b9 a33e 63c6 fc3e
000003a0: 10ac 46bc 8c03 fabc 17cc 0a3c 1637 d3bd
000003b0: 0f9f 30be 36ac d83d 0da9 223d 3ee8 e93b
000003c0: 534b 3d3e 7f11 533e 872a 9f3d ffe9 983d
000003d0: ddfc 003e 6335 fe3d 4974 3d3e e6fd 293e
000003e0: f920 dbbd d0bb f5bd b4ac b1bd b322 473d
000003f0: 307a 2abe 7a49 263d f16d 173d f91f a03d

fc1.bias f4 [64]
0.020117987 0.14148737 -0.052625716 -0.0810794 -0.08516356 0.029095864 -0.0602316 0.1567804
-0.007989556 -0.049502727 -0.0028637517 -0.10605137 -0.19113071 -0.03150078 0.021188524 -0.02920623
-0.13912344 -0.067157894 -0.10961043 0.26688862 -0.13386375 -0.028851211 -0.029352106 0.027047899
-0.13316087 0.0723728 0.049819805 0.17298567 0.1589827 0.12356312 -0.05328156 0.15468909
-0.14445613 -0.012838321 -0.1950841 0.17355475 0.023840824 0.07218747 -0.09058239 -0.19784318
0.04238826 0.18727578 0.051755518 0.23551077 -0.09553263 -0.0769349 0.1620349 0.0068711503
0.08267116 0.14739549 0.2501873 -0.07309631 0.069463834 0.07310478 0.039835855 -0.1522464
-0.076117635 0.16521712 -0.113235906 -0.09050181 0.16685353 -0.04216302 0.08537206 0.055695467
00000000: 7ace a43c 11e2 103e 108e 57bd f50c a6bd
00000010: 3c6a aebd 735a ee3c 69b5 76bd 0b8b 203e
00000020: a0e6 02bc 5fc3 4abd c8ad 3bbb 7631 d9bd
00000030: c5b7 43be f606 01bd 8e93 ad3c e741 efbc
00000040: 6076 0ebe 148a 89bd 6f7b e0bd a0a5 883e
00000050: 9413 09be 6059 ecbc d473 f0bc 8e93 dd3c
00000060: 535b 08be 3138 943d da0f 4c3d 2823 313e
00000070: 5ccc 223e a90e fd3d c43d 5abd d166 1e3e
00000080: 4fec 13be d257 52bc 20c4 47be 56b8 313e
00000090: d54d c33c 06d7 933d 4383 b9bd 6797 4abe
000000a0: 509f 2d3d 39c5 3f3e 98fd 533d bc29 713e
000000b0: 9da6 c3bd 0b90 9dbd 7aec 253e 6327 e13b
000000c0: 7f4f a93d d8ee 163e 8d18 803e 85b3 95bd
000000d0: 0e43 8e3d f5b7 953d ec2a 233d 7be6 1bbe
000000e0: 90e3 9bbd ad2e 293e 3ae8 e7bd 0359 b9bd
000000f0: a7db 2a3e 22b3 2cbd 8cd7 ae3d ee20 643d

fc2.weight f4 [64, 64]
0.091994606 0.040702444 0.11583719 0.14288828 0.07496112 0.12897916 0.10245336 0.062385652
0.044066668 -0.19476506 0.2090045 0.021541217 -0.0308752 0.054038737 0.10907011 0.2586193
-0.06573369 0.054150883 -0.09352761 0.04433387 -0.10147976 -0.10698754 -0.14452563 0.06335087
-0.021311855 -0.05817922 0.19111688 0.3901431 0.052707296 0.077434696 0.05143045 0.173177
-0.023262342 0.17271288 -0.06600807 0.0023939793 0.08320036 0.055745337 0.047837894 0.022195334
0.017655246 -0.0035775655 -0.024549225 0.18431206 0.055364877 0.12348779 -0.021633472 -0.0001872661
-0.0335443 0.07895858 0.092450686 0.14804201 0.0054877214 0.15172517 0.20113857 0.1422524
-0.13300283 0.024853485 -0.06107804 0.018581565 -0.08953678 -0.045256704 0.004051453 -0.039500367
-0.14032598 -0.15433033 -0.30903494 -0.20696682 -0.16914538 -0.18824564 -0.33039412 0.16423362
0.2876663 -0.11466173 0.14483163 -0.07128061 -0.24614549 -0.008839649 0.09114978 -0.072276644
-0.36869895 -0.18291578 -0.060865216 -0.18211523 0.14220162 -0.18713675 0.1730405 -0.2338575
-0.05468583 -0.30598593 -0.04400227 -0.0029346992 -0.22050238 0.15285604 0.13179398 -0.030609297
-0.22747925 0.01276067 -0.19708063 0.10719355 -0.20415723 -0.029030025 -0.34154773 0.1323906
-0.027921515 -0.20286891 -0.07268168 0.10236103 -0.13276991 -0.0018703642 0.17759712 -0.25547072
-0.23455015 -0.01880027 -0.09373798 0.085741974 -0.08403842 -0.06260951 -0.08280217 -0.30119875
-0.24905081 0.0033356894 -0.074856564 -0.50748706 -0.07237915 0.22222607 -0.2783043 -0.039285827
-0.031136705 -0.09533159 -0.24589162 -0.009739289 0.22098735 -0.38219807 -0.10298153 -0.35422525
0.15878983 0.03934628 -0.112738326 -0.051460538 -0.03062263 0.088203944 -0.10804743 0.08639486
-0.19830585 -0.010593927 0.073904246 -0.06560707 0.16967115 0.25701907 0.104323134 -0.077863716
0.15307601 0.089370884 0.15496679 0.10658558 -0.12620896 -0.042676847 0.2426473 -0.11016625
0.31499726 0.0165052 -0.15913397 -0.03762842 0.11886193 -0.30585954 -0.20940408 -0.41568083
-0.021609144 0.05362707 0.23567119 0.11739199 0.011737857 -0.04047264 0.12145237 0.03777547
-0.04171675 -0.06553332 0.16189031 -0.14219353 0.11280363 -0.07978807 0.017606316 -0.06660232
-0.17476991 0.03911108 0.08212513 -0.10340447 -0.07745342 -0.062088136 -0.010390843 0.14968896
-0.12105832 -0.0067741997 -0.12727039 -0.12420162 -0.21766788 -0.44459856 0.13436624 -0.13165992
0.25979084 -0.13668473 0.21545444 0.029418295 -0.34597534 -0.089639574 -0.5751245 -0.35829392
-0.08185658 0.05265519 -0.13609901 -0.124604724 0.15089063 -0.28653592 0.47181782 -0.35222292
-0.04032575 -0.079828985 -0.17697598 -0.25002307 -0.0970199 0.14536819 -0.21172605 0.25161418
-0.119330436 -0.26999912 -0.075578175 -0.1329506 -0.265192 -0.08190641 0.06915296 0.13880886
-0.24477173 -0.020293867 -0.17443652 -0.038881604 -0.15876251 -0.3509749 -0.2966788 -0.28498462
-0.28992766 0.05295646 0.05170759 0.3508194 -0.024854401 0.1296683 0.1506421 -0.32396805
0.32420382 -0.05919873 -0.0023594638 -0.48813197 -0.39641297 0.35239965 0.16740523 -0.19096589
00000000: ab67 bc3d 9bb7 263d 0c3c ed3d 4e51 123e
00000010: 3785 993d 1d13 043e 11d3 d13d 1988 7f3d
00000020: 407f 343d 7e70 47be 4705 563e 3577 b03c
00000030: fded fcbc b957 5d3d 2660 df3d c069 843e
00000040: 639f 86bd 51cd 5d3d 678b bfbd 6f97 353d
00000050: 9fd4 cfbd 491c dbbd 87fe 13be 1abe 813d
00000060: 3396 aebc 554d 6ebd 25b4 433e d6c0 c73e
00000070: 9be3 573d 1596 9e3d bca8 523d 5055 313e
00000080: ab90 bebc a5db 303e 3d2f 87bd 4fe4 1c3b
00000090: f364 aa3d 3955 643d abf1 433d fdd2 b53c
000000a0: bca1 903c 9775 6abb 751b c9bc 4dbc 3c3e
000000b0: 48c6 623d 2be7 fc3d ae38 b1bc dc5c 44b9
000000c0: bf65 09bd 09b5 a13d c956 bd3d 5398 173e
000000d0: 58d2 b33b d85d 1b3e 45f7 4d3e 9daa 113e
000000e0: e531 08be 8999 cb3c f82c 7abd 5e38 983c
000000f0: 0f5f b7bd 185f 39bd 0dc2 843b 23cb 21bd
00000100: 9db1 0fbe c508 1ebe d439 9ebe 1cef 53be
00000110: 7234 2dbe 77c3 40be 6b29 a9be dc2c 283e
00000120: ff48 933e c5d3 eabd be4e 143e 92fb 91bd
00000130: 900d 7cbe 2dd4 10bc bcac ba3d c705 94bd
00000140: 1cc6 bcbe 464e 3bbe ce4d 79bd 6a7c 3abe
00000150: 4d9d 113e c7a0 3fbe 8731 313e 5778 6fbe
00000160: 40fe 5fbd 30aa 9cbe b93b 34bd 1554 40bb
00000170: 60cb 61be 4b86 1c3e 00f5 063e 59c0 fabc
00000180: 52f0 68be 2112 513c 81cf 49be 4b88 db3d
00000190: 980e 51be 60d0 edbc 58df aebe 6791 073e
000001a0: a9bb e4bc debc 4fbe 22da 94bd a9a2 d13d
000001b0: d6f4 07be 0227 f5ba 05dc 353e 0fcd 82be
000001c0: ea2d 70be 0603 9abc b3f9 bfbd 7d99 af3d
000001d0: 561c acbd 6a39 80bd 2f94 a9bd b936 9abe
000001e0: 2d07 7fbe 959b 5a3b 664e 99bd acea 01bf
000001f0: 853b 94bd 3b8f 633e e77d 8ebe 2dea 20bd
00000200: 6712 ffbc 353d c3bd 03cb 7bbe 8a91 1fbc
00000210: 824a 623e 77af c3be fbe7 d2bd 035d b5be
00000220: cd99 223e 9129 213d 5ae3 e6bd 49c8 52bd
00000230: 4fdc fabc 45a4 b43d f947 ddbd caef b03d
00000240: b010 4bbe 2792 2dbc 1c5b 973d 005d 86bd
00000250: 46be 2d3e 0198 833e 5ea7 d53d 0377 9fbd
00000260: f5bf 1c3e 1508 b73d 9daf 1e3e 8a49 da3d
00000270: ec3c 01be ebcd 2ebd 8978 783e d89e e1bd
00000280: 5247 a13e ea35 873c 04f4 22be 4220 1abd
00000290: e26d f33d 9f99 9cbe 066e 56be 1ed4 d4be
000002a0: a905 b1bc 0fa8 5b3d ca53 713e 366b f03d
000002b0: 2450 403c a4c6 25bd 05bc f83d 74ba 1a3d
000002c0: 2fdf 2abd 5536 86bd 93c6 253e 2e9b 11be
000002d0: 9705 e73d ed67 a3bd 1f3b 903c cc66 88bd
000002e0: e2f6 32be f132 203d 3831 a83d b9c5 d3bd
000002f0: e69f 9ebd 2150 7ebd 5b3e 2abc 1048 193e
00000300: 6ded f7bd 1bfa ddbb 2b53 02be 6b5d febd
00000310: 54e4 5ebe 6ca2 e3be 4e97 093e dcd1 06be
00000320: 4e03 853e 15f7 0bbe 17a0 5c3e a3fe f03c
00000330: ae23 b1be f494 b7bd 5c3b 13bf 4d72 b7be
00000340: 6ca4 a7bd f8ac 573d 8a5d 0bbe c330 ffbd
00000350: 1383 1a3e d6b4 92be 1b92 f13e 9056 b4be
00000360: 9d2c 25bd 617d a3bd 3139 35be 0603 80be
00000370: 5fb2 c6bd 66db 143e b7ce 58be 93d3 803e
00000380: 8463 f4bd 533d 8abe bbc8 9abd 3424 08be
00000390: 3fc7 87be 8cbe a7bd 11a0 8d3d e923 0e3e
000003a0: 71a5 7abe 533f a6bc 7d9f 32be 5142 1fbd
000003b0: a492 22be fbb2 b3be 49e6 97be 81e9 91be
000003c0: 6671 94be dfe8 583d 57cb 533d 9a9e b33e
000003d0: 759b cbbc c4c7 043e ec41 1a3e 24df a5be
000003e0: 0bfe a53e 5e7a 72bd 3ca1 1abb 6fec f9be
000003f0: a4f6 cabe ba6d b43e 476c 2b3e 908c 43be

fc2.bias f4 [64]
0.4163112 0.07983068 0.07498091 0.019033048 -0.02935569 -0.06631828 0.26723552 -0.12807402
-0.030415043 -0.004705441 0.1886543 0.05182485 -0.010592039 0.013409411 0.0720214 -0.20673487
-0.057416618 0.32239014 0.24012487 0.19729513 0.32657108 0.3458699 -0.12596759 0.0218861
-0.032118883 -0.0489756 -0.0780424 -0.028161965 -0.14004348 0.2586786 0.25739735 -0.072326094
0.29057094 0.13041571 0.049047504 -0.0070374836 -0.040190168 0.21301492 -0.001421547 -0.05042904
-0.23340419 -0.028843809 -0.05057124 0.32054606 0.061519638 0.1039512 0.33311364 -0.1104378
-0.16691929 0.033418182 0.16117357 -0.1290832 0.13739574 -0.17082077 -0.047142792 -0.064104
0.15662003 0.021219313 0.07705283 -0.0282526 -0.039785895 -0.15157536 -0.046322536 -0.05157348
00000000: be26 d53e 447e a33d 978f 993d 32eb 9b3c
00000010: 587b f0bc e1d1 87bd 18d3 883e d625 03be
00000020: f828 f9bc 1a30 9abb 982e 413e 4b46 543d
00000030: 3b8a 2dbc 25b3 5b3c f57f 933d 4eb2 53be
00000040: b02d 6bbd 5210 a53e 4be3 753e bc07 4a3e
00000050: 5334 a73e dc15 b13e a6fd 00be 7a4a b33c
00000060: 178f 03bd a49a 48bd b2d4 9fbd ecb3 e6bc
00000070: 8f67 0fbe 8571 843e 96c9 833e b41f 94bd
00000080: b7c5 943e b28b 053e 09e6 483d b19a e6bb
00000090: 729e 24bd 9520 5a3e 3453 baba ae8e 4ebd
000000a0: 8201 6fbe da49 ecbc ca23 4fbd 9d1e a43e
000000b0: 04fc 7b3d 5ee4 d43d df8d aa3e 372d e2bd
000000c0: e4ec 2abe 81e1 083d af0a 253e 632e 04be
000000d0: 78b1 0c3e a4eb 2ebe cd18 41bd f548 83bd
000000e0: 0061 203e 20d4 ad3c e0cd 9d3d ff71 e7bc
000000f0: 89f6 22bd 9236 1bbe b3bc 3dbd b73e 53bd

fc3.weight f4 [4, 64]
0.19031791 -0.15321888 0.042904213 0.22655691 0.063281156 0.021206344 0.08949081 -0.022028636
-0.21859716 0.35793236 0.12639408 -0.019361181 0.209177 0.28904247 0.4828293 -0.22752166
-0.04823188 0.15681538 0.27858415 0.1501707 0.05114366 0.14960569 0.0023635544 0.01773524
0.53316414 0.18952003 -0.1871148 0.1552943 -0.15435144 0.13700461 0.23471847 0.07468669
-0.013602526 0.12073218 0.04981728 0.2096014 0.112488 0.0718378 -0.72408277 -0.6224172
-0.08629346 0.07187473 0.111915074 0.16884054 0.21705537 0.06556168 0.16402397 -0.23758239
-0.22525027 0.24580185 0.09777039 0.10398537 0.14776514 0.018764311 0.6860015 -0.2226723
0.13307749 0.61886 0.028866362 0.80822796 -0.14504914 0.32660502 -0.27804568 -0.6448509
0.1680745 -0.40956348 0.1749704 -0.101041 0.022752201 0.18175568 0.1730602 0.023611369
-0.020818051 0.64926213 0.13493444 -0.102086075 0.31684926 -0.0067219427 0.42961168 -0.1966455
-0.030569557 0.11901344 0.17428266 0.1334779 0.13813299 0.18450192 -0.06732886 -0.17978649
0.43333182 0.3826252 -0.029485581 0.16940804 -0.08723668 0.13948703 0.14436379 -0.08614415
0.059218716 0.15156257 0.11715187 0.21424735 0.18616714 0.13776325 0.13831931 -0.13045901
-0.05867866 -0.14844862 0.10412182 0.16301812 0.26679516 0.20829782 0.11497713 -0.14022352
0.15828319 0.1936811 0.053238798 0.20351034 0.22337852 0.20466007 0.65244085 -0.1991461
0.13828377 0.44318572 -0.019768385 0.6337457 -0.050929926 -0.19175503 -0.11301669 -0.010218135
0.17318925 0.06720283 0.15037225 0.001832534 0.04479426 -0.021547535 0.159673 0.17009851
-0.18992954 1.040435 0.21664944 -0.27594995 0.107066885 0.15492745 0.45015568 -0.053762663
-0.2357895 0.14649796 0.19625492 0.08208839 0.10138581 0.19936782 -0.22365962 -0.20556122
0.28858295 0.4907231 -0.036392685 0.053946838 -0.13693456 0.09276744 0.1103491 0.085085
0.14810751 0.25514084 -0.106810115 0.29655933 -0.06423688 0.043931745 0.09688672 -0.13604324
-0.07000611 0.036542926 0.27331454 0.15940373 0.32308948 0.56833476 0.12013259 -0.09572001
-0.26200497 0.01447561 0.07243771 0.4281885 0.23326205 0.3386674 -0.255122 -0.039861936
0.12558322 0.30567425 0.10249222 0.61985606 0.043818153 -0.031311907 0.08460887 -0.44261283
0.15456213 -0.19990182 -0.04433315 0.31206742 0.5872715 0.3194018 0.29376298 0.13321233
-0.08223511 0.012209322 0.22047117 -0.3991539 0.45803365 0.3101802 0.38846162 -0.070651054
0.12545197 0.16356064 0.16831465 0.12225115 0.119064935 0.17628759 0.11570481 -0.4948951
0.4556102 0.22676267 -0.16862653 0.018903453 -0.086891636 0.05183369 0.14492716 -0.064499296
0.1089867 0.09896247 -0.17174803 0.38593003 0.068649784 0.1816185 -0.16814856 -0.38013342
-0.07954053 -0.42928678 0.029547803 0.16346756 0.14245687 0.25622177 0.12395964 -0.21469271
0.08924796 0.03440848 0.06832294 -0.3216083 0.21781866 0.25520763 0.55734026 -0.43802604
-0.007513217 0.20346327 0.102780186 0.3007962 -0.11904258 -0.12640215 -0.57989705 -0.13894713
00000000: b3e2 423e 69e5 1cbe 54bc 2f3d 89fe 673e
00000010: 8d99 813d edb8 ad3c f546 b73d 6675 b4bc
00000020: efd7 5fbe e942 b73e 736d 013e 579b 9ebc
00000030: 7f32 563e 60fd 933e 6735 f73e 70fb 68be
00000040: cb8e 45bd 3694 203e 95a2 8e3e 59c6 193e
00000050: 047c 513d 3c32 193e dde5 1a3b 7e49 913c
00000060: 727d 083f 8a11 423e 069b 3fbe 7805 1f3e
00000070: 4e0e 1ebe f04a 0c3e 0a5a 703e 56f5 983d
00000080: 21dd 5ebc 6f42 f73d 340d 4c3d c0a1 563e
00000090: 1c60 e63d b21f 933d 7d5d 39bf bc56 1fbf
000000a0: a0ba b0bd 0f33 933d bb33 e53d 89e4 2c3e
000000b0: c343 5e3e 3445 863d e6f5 273e cc48 73be
000000c0: 02a8 66be 7bb3 7b3e d83b c83d 48f6 d43d
000000d0: bf4f 173e 9db7 993c cb9d 2f3f 3504 64be
000000e0: 7745 083e 9c6d 1e3f 2679 ec3c 07e8 4e3f
000000f0: c387 14be c638 a73e 015c 8ebe f314 25bf
00000100: b91b 2c3e 4eb2 d1be 712b 333e 95ee cebd
00000110: d362 ba3c 291e 3a3e b136 313e a16c c13c
00000120: 9e8a aabc 0b36 263f 412c 0a3e 8112 d1bd
00000130: 113a a23e be43 dcbb 10f6 db3e 705d 49be
00000140: 026d fabc 52bd f33d 2777 323e 6eae 083e
00000150: bc72 0d3e 12ee 3c3e b7e3 89bd f319 38be
00000160: abdd dd3e 73e7 c33e bf8b f1bc 4d79 2d3e
00000170: 25a9 b2bd b0d5 0e3e 1ad4 133e 586c b0bd
00000180: 538f 723d 3833 1b3e 52ed ef3d a863 5b3e
00000190: 99a2 3e3e cf11 0d3e 94a3 0d3e 0c97 05be
000001a0: 0959 70bd ea02 18be d23d d53d 39ee 263e
000001b0: 6099 883e 064c 553e 2179 eb3d c196 0fbe
000001c0: fd14 223e 5754 463e ed10 5a3d 0465 503e
000001d0: 57bd 643e 6992 513e 5d06 273f f5ec 4bbe
000001e0: 439a 0d3e 3de9 e23e 4ff1 a1bc 283d 223f
000001f0: e69b 50bd 6e5b 44be 4b75 e7bd f769 27bc
00000200: 8658 313e a3a1 893d 2ffb 193e a331 f03a
00000210: 307a 373d 7584 b0bc 5281 233e 4e2e 2e3e
00000220: e47c 42be f92c 853f 5ad9 5d3e 5049 8dbe
00000230: e245 db3d 4da5 1e3e ce7a e63e 3d36 5cbd
00000240: cd72 71be 9003 163e 0df7 483e f51d a83d
00000250: 5da3 cf3d 1427 4c3e 0707 65be a47e 52be
00000260: 25c1 933e 0f40 fb3e 7f10 15bd 5cf7 5c3d
00000270: 9338 0cbe dbfc bd3d b5fe e13d 0b41 ae3d
00000280: 7fa9 173e d2a1 823e 43bf dabd a0d6 973e
00000290: a08e 83bd c6f1 333d 8b6c c63d eb4e 0bbe
000002a0: 5d5f 8fbd 09ae 153d e2ef 8b3e bb3a 233e
000002b0: fc6b a53e 637e 113f 1308 f63d da08 c4bd
000002c0: 8425 86be 1c2b 6d3c 395a 943d 863b db3e
000002d0: 3fdc 6e3e d065 ad3e 5a9f 82be 4546 23bd
000002e0: e398 003e 5681 9c3e 71e7 d13d e3ae 1e3f
000002f0: aa7a 333d ea40 00bd 6a47 ad3d 269e e2be
00000300: 8945 1e3e 10b3 4cbe ad96 35bd 4dc7 9f3e
00000310: 6d57 163f a288 a33e 1a68 963e d068 083e
00000320: e26a a8bd 9c09 483c 32c3 613e e65d ccbe
00000330: 6383 ea3e f0cf 9e3e 71e4 c63e 80b1 90bd
00000340: 7b76 003e 717c 273e ad5a 2c3e d05e fa3d
00000350: 51d8 f33d bc84 343e a5f6 ec3d e462 fdbe
00000360: bd45 e93e 7934 683e 6fac 2cbe 6adb 9a3c
00000370: 3ef4 b1bd 904f 543d c967 143e 3518 84bd
00000380: 6b34 df3d d6ac ca3d b7de 2fbe 9f98 c53e
00000390: 4298 8c3d 33fa 393e 232f 2cbe d9a0 c2be
000003a0: 25e6 a2bd 7acb dbbe 3c0e f23c 0a64 273e
000003b0: 37e0 113e 802f 833e 8dde fd3d 68d8 5bbe
000003c0: a2c7 b63d e8ef 0c3d e6ec 8b3d d8a9 a4be
000003d0: db0b 5f3e 93aa 823e daad 0e3f f344 e0be
000003e0: 6f31 f6bb ad58 503e 6b7e d23d f601 9a3e
000003f0: 99cc f3bd 916f 01be 2274 14bf 2848 0ebe

fc3.bias f4 [4]
0.29727492 0.14815113 0.23204502 0.24748816
00000000: 6b34 983e eeb4 173e 369d 6d3e 896d 7d3e
