checkpoint01.pth (torch, 29631 bytes, 6 tensors)

fc1.weight f4 [64, 37]
0.22296828 0.03876117 -0.113057725 -0.2476141 -0.32764882 0.01073416 0.30136228 -0.03625421
0.100622155 -0.328657 0.18217191 0.19992195 -0.14177872 -0.01815962 0.14389975 0.028468767
-0.14147776 0.112446465 -0.18890743 0.008785022 -0.11775158 -0.15985323 0.0097582005 -0.14685367
0.02336094 -0.09210161 0.1372077 -0.055032957 -0.09456875 0.30252492 0.010903674 -0.93105763
0.063779674 -0.11526575 -0.794745 0.01642567 -2.6338184e-05 -0.1688972 -0.0012561462 -0.032663915
-0.048532512 -0.0032587608 -0.13476641 -0.1557873 0.06349193 -0.09136781 0.04917718 0.17668411
-0.021441132 -0.26923558 -0.18755578 -0.728352 0.17774166 -0.06529602 -0.044248126 -0.04289332
-0.40140158 -0.106402 0.06294768 -0.063321695 0.009990499 -0.024847083 -0.032709185 -0.10885367
0.09715201 0.16177592 0.18057127 0.1512793 -0.005424766 -0.03447056 0.05076053 -0.00488766
0.002114621 0.0028337752 0.016525434 0.019744014 0.010274733 0.06429413 0.051830422 0.034778092
0.060134463 0.06805467 0.08419172 0.011421048 0.034888577 0.097643495 0.08620997 0.06415826
0.001349949 0.12636445 0.08572929 0.0832791 0.009184659 -0.10209832 0.37174308 -0.6509705
-0.5241188 -0.4783339 -2.1538873 0.1720543 0.18730053 0.16321106 0.18227042 0.013414523
0.06677119 0.049284875 0.08913135 0.14143734 0.09246958 -0.03315242 0.0053866347 0.24105254
-0.14528258 0.071029946 0.024157647 -0.31412005 -0.030751098 0.02290468 0.21222481 0.30986804
0.41192544 -0.03923766 -0.0037657358 0.05277786 0.06048382 -0.13947152 0.11918653 0.13503909
-0.027813977 0.20315698 -0.06795604 0.090983704 0.0429997 0.01789494 0.04291442 0.09814258
0.020999677 -0.10224578 -0.1598239 -0.003719575 -0.0732968 0.21587868 0.03630127 0.17117077
0.05566831 0.18054108 -0.07854271 -0.008301649 0.12883262 0.07578633 -0.00996389 -0.17293285
-0.33572584 -0.23852707 -0.03847379 -0.12724245 -0.036493562 0.034456454 0.3525582 -0.2358211
-0.26214653 -0.44335565 -1.5074342 -0.049688827 -0.013327932 -0.039371178 0.04588032 0.17130086
0.11646017 0.052601956 0.062830605 0.23555145 0.22105989 -0.007913965 0.15140824 0.126071
0.27301964 0.29031074 -0.07675929 0.0016677297 0.04828222 -0.14697796 0.0009995985 -0.03449408
-0.006485486 0.00105866 -0.09408756 -0.004707986 -0.05156256 -0.045245197 -0.08409355 -0.22364834
0.020989796 0.04073548 0.12710987 0.055952508 0.12359162 0.09916954 0.06582337 0.13905387
0.10632332 0.047888152 -0.035830237 -0.10234583 -0.02678957 -0.13177516 0.11494732 -0.05360124
0.077064015 -0.018724896 0.36494967 -0.24867031 -0.09247574 -0.2317935 -1.4091303 -0.084243596
0.03682855 0.18775626 -0.30129635 0.024900647 0.009110361 0.002535231 0.16170417 -0.020121776
0.110517494 0.15226136 0.06645091 -0.033476677 -0.07853425 0.12031386 0.2980449 0.2702789
0.1383124 -0.076368995 0.1493301 -0.11733476 -0.3866189 -0.010548878 0.12215019 0.08404898
0.26683262 0.31516322 0.20902224 0.12894623 0.17419541 0.03424496 -0.1863546 0.27343816
0.0096931225 -0.017705875 -0.11606008 -0.40378955 0.070225954 -0.078502856 0.09771596 0.002136182
00000000: cc51 643e 08c4 1e3d cf8a e7bd 8d8e 7dbe
00000010: 96c1 a7be 55de 2f3c 284c 9a3e 4b7f 14bd
00000020: fd12 ce3d bb45 a8be 468b 3a3e 57b8 4c3e
00000030: 712e 11be 7cc3 94bc 755a 133e 5537 e93c
00000040: 8cdf 10be 554a e63d f370 41be 0eef 0f3c
00000050: be27 f1bd 91b0 23be dce0 1f3c cf60 16be
00000060: 715f bf3c c59f bcbd 2d80 0c3e 3d6a 61bd
00000070: 43ad c1bd 8ce4 9a3e 53a5 323c cb59 6ebf
00000080: eb9e 823d 7310 ecbd 6974 4bbf 208f 863c
00000090: d2f0 dcb7 63f3 2cbe 46a5 a4ba 99ca 05bd
000000a0: 07ca 46bd ef90 55bb 3500 0abe b586 1fbe
000000b0: 0f08 823d 0c1f bbbd 036e 493d aeec 343e
000000c0: 50a5 afbc 3fd9 89be 9f0e 40be 4775 3abf
000000d0: e901 363e ebb9 85bd 863d 35bd e8b0 2fbd
000000e0: 8284 cdbe 4be9 d9bd b7ea 803d ceae 81bd
000000f0: 31af 233c 1c8c cbbc 11fa 05bd acee debd
00000100: a2f7 c63d 96a8 253e ade7 383e f6e8 1a3e
00000110: 3cc2 b1bb 0031 0dbd 46ea 4f3d aa28 a0bb
00000120: 7495 0a3b dcb6 393b 5960 873c 33be a13c
00000130: 5b57 283c a4ac 833d 234c 543d 7973 0e3d
00000140: 8e4f 763d 3f60 8b3d b56c ac3d 591f 3b3c
00000150: 53e7 0e3d 50f9 c73d da8e b03d 6865 833d
00000160: c6f0 b03a af65 013e d792 af3d 3c8e aa3d
00000170: 417b 163c ed18 d1bd 1c55 be3e 01a6 26bf
00000180: a62c 06bf 2ee8 f4be 4ad9 09c0 012f 303e
00000190: b6cb 3f3e cd20 273e 19a5 3a3e 96c8 5b3c
000001a0: 55bf 883d f0de 493d 7f8a b63d f3d4 103e
000001b0: b160 bd3d d5ca 07bd 5e82 b03b 7ad6 763e
000001c0: f5c4 14be 2678 913d 42e6 c53c 58d4 a0be
000001d0: bae9 fbbc 98a2 bb3c 7651 593e 06a7 9e3e
000001e0: e4e7 d23e abb7 20bd 90ca 76bb 992d 583d
000001f0: e2bd 773d 9fd1 0ebe 1118 f43d b047 0a3e
00000200: 23da e3bc 6208 503e 892c 8bbd aa55 ba3d
00000210: 7420 303d 6998 923c 08c7 2f3d fafe c83d
00000220: 8407 ac3c 3c66 d1bd e0a8 23be 1dc4 73bb
00000230: a21c 96bd 4d0f 5d3e a4b0 143d 6447 2f3e
00000240: 7404 643d c3df 383e 00db a0bd a403 08bc
00000250: b3ec 033e dd35 9b3d 953f 23bc 4f15 31be
00000260: 42e4 abbe 7140 74be b196 1dbd d84b 02be
00000270: 467a 15bd 3622 0d3d 8282 b43e 167b 71be
00000280: 1238 86be 83ff e2be 9bf3 c0bf 8386 4bbd
00000290: 665d 5abc ac43 21bd 01ed 3b3d 7e69 2f3e
000002a0: ab82 ee3d 2675 573d 55ad 803d 6634 713e
000002b0: 865d 623e 93a9 01bc c30a 1b3e c218 013e
000002c0: 3bc9 8b3e 9ca3 943e fa33 9dbd b997 da3a
000002d0: 94c3 453d 6481 16be f604 833a aa49 0dbd
000002e0: 3384 d4bb bcc2 8a3a fbb0 c0bd 7345 9abb
000002f0: 4333 53bd 0753 39bd 3d39 acbd 1204 65be
00000300: cbf2 ab3c 3fda 263d 1729 023e 752e 653d
00000310: 9a1d fd3d 6619 cb3d 67ce 863d 2364 0e3e
00000320: 0ac0 d93d 5e26 443d bac2 12bd b19a d1bd
00000330: cd75 dbbc 11f0 06be 8069 eb3d f98c 5bbd
00000340: bdd3 9d3d f464 99bc afda ba3e 6ea3 7ebe
00000350: ec63 bdbd 465b 6dbe 625e b4bf e887 acbd
00000360: 89d9 163d 2d43 403e 8443 9abe 71fc cb3c
00000370: a043 153c 1e26 263b c795 253e 6cd6 a4bc
00000380: ff56 e23d 67ea 1b3e 6a17 883d d71e 09bd
00000390: 91d6 a0bd 1d67 f63d 5799 983e ff61 8a3e
000003a0: c4a1 0d3e 5967 9cbd fde9 183e 354d f0bd
000003b0: eaf2 c5be 34d5 2cbc e129 fa3d df21 ac3d
000003c0: 499e 883e 135d a13e ed09 563e 7b0a 043e
000003d0: 4860 323e 7144 0c3d bed3 3ebe 1600 8c3e
000003e0: e7cf 1e3c e90b 91bc e8b0 edbd 81bd cebe
000003f0: a0d2 8f3d 1bc6 a0bd 4e1f c83d 30ff 0b3b

fc1.bias f4 [64]
-0.04225231 0.050705202 -0.11939618 -0.10118101 -0.047559563 -0.046207745 0.045507044 0.24284977
0.01854485 -0.031737242 -0.019484498 -0.0949827 -0.18790928 0.022795612 0.0041876384 -0.10820672
-0.060336556 -0.03381009 -0.13517134 0.07573566 -0.23475572 -0.020448253 0.0017343664 0.068217
-0.21692267 0.15705638 -0.013610706 0.22907095 0.2296982 0.08347733 -0.14937153 0.07731769
-0.2775082 -0.0020673177 -0.16588546 0.10019786 -0.054656815 0.040928748 -0.21055616 -0.15682022
0.05850065 0.20886646 0.04342277 0.26434997 -0.0716377 -0.11699914 0.08771362 -0.031415552
0.1088133 0.1998666 0.15400377 -0.02857324 0.03757611 0.07583923 0.03668572 -0.14630644
-0.028287204 0.11004647 -0.09815242 -0.08491063 0.11234239 -0.052171715 0.09256897 0.052363593
00000000: c210 2dbd 42b0 4f3d fc85 f4bd fd37 cfbd
00000010: d1cd 42bd 5544 3dbd 9865 3a3d 9cad 783e
00000020: 5feb 973c e9fe 01bd f49d 9fbc 4a86 c2bd
00000030: 4a6b 40be ddbd ba3c 7538 893b 7c9b ddbd
00000040: 7723 77bd 737c 0abd 5b6a 0abe 4c1b 9b3d
00000050: ce63 70be 1883 a7bc ae53 e33a 5bb5 8b3d
00000060: fa20 5ebe 63d3 203e 70ff 5ebc 9391 6a3e
00000070: 0136 6b3e 2af6 aa3d daf4 18be bd58 9e3d
00000080: 8e15 8ebe d67b 07bb e1dd 29be 8934 cd3d
00000090: d3df 5fbd e7a4 273d 099c 57be 7b95 20be
000000a0: 619e 6f3d 17e1 553e 13dc 313d e158 873e
000000b0: c9b6 92bd 3f9d efbd 33a3 b33d 98ad 00bd
000000c0: 82d9 de3d d4a9 4c3e 2ab3 1d3e 6d12 eabc
000000d0: 68e9 193d 9951 9b3d c443 163d 5bd1 15be
000000e0: 91ba e7bc 0b60 e13d 2304 c9bd a0e5 adbd
000000f0: c413 e63d 02b2 55bd cd94 bd3d 357b 563d

fc2.weight f4 [64, 64]
0.09215215 -0.022305457 0.19833952 0.18687817 0.12776619 0.08611864 0.16839722 0.23862539
0.09877087 -0.05626019 0.20875773 -0.0008637436 -0.04285408 -0.097496785 0.2275651 0.14055468
-0.022252738 0.07531689 -0.051202726 -0.06458865 -0.061801758 -0.0402155 0.004098714 0.30626884
-0.14376551 -0.05686201 0.0072617866 0.29641485 0.11989339 0.031156005 0.005767074 0.12793194
-0.12264241 0.16804819 -0.0011749391 -0.033882454 0.25971672 0.025749423 0.05609121 0.03218855
0.0022055064 0.05621692 0.021864377 0.17258975 0.05342677 0.16037534 0.09379972 0.0032266658
-0.0003852287 0.09223874 0.118813775 0.21963675 0.0665583 0.082843564 0.17065847 0.20530172
-0.0152076 0.014484615 0.013743204 0.06242853 0.021649852 0.054037347 0.007304071 -0.020896545
0.1557303 -0.026299167 -0.22479308 -0.06967151 -0.0046671275 -0.018024165 0.042134143 0.5201356
-0.25437528 0.12055748 -0.19504742 -0.34976596 -0.15388934 0.12057373 -0.097454764 -0.045926034
-0.083623916 -0.071270235 0.111129194 -0.062571 -0.2504834 -0.016073706 0.07493422 -0.18484138
0.19471096 0.28941056 -0.078521654 -0.009072798 0.013106307 -0.17158553 -0.02540513 -0.004386337
-0.001564538 -0.016723542 0.26784906 0.047210563 -0.2320779 0.11178386 -0.036992278 -0.13280158
-0.06147482 -0.1858237 0.06900534 -0.08699585 0.044721976 -0.055521462 -0.3854731 -0.37548348
-0.15372624 0.010290251 -0.011641865 0.02354625 -0.42843458 -0.20177856 -0.0041304585 -0.21558282
-0.119142935 -0.022999503 -0.18597211 -0.33435065 0.038398795 -0.23499028 -0.2901472 -0.0071395026
0.094245285 0.07190398 -0.4116335 -0.052382875 0.4380353 0.014655352 -0.012111208 0.063842066
0.0040469286 0.027171787 -0.15654416 -0.3696206 -0.1006473 0.3624333 -0.10757357 -0.024798375
-0.113584936 -0.0561204 0.014493302 -0.033390857 0.08306372 -0.08695137 -0.10618633 0.010828019
0.05231559 -0.069405004 0.07663679 0.28617632 -0.13498378 0.05718081 -0.11609064 -0.037454773
0.06607365 0.062354162 0.10231461 -0.10035753 0.22628966 -0.06399266 0.17087354 -0.08650266
-0.017393036 0.013327245 0.38068536 0.08614013 0.013474111 -0.007723118 0.027118556 0.06578768
0.034019515 -0.011290946 0.16309787 0.13483474 -0.1919571 0.11812136 0.04305405 -0.13002446
0.17516276 -0.001577275 -0.005017097 -0.15994102 -0.06309839 -0.1913032 -0.13981864 -0.036948163
0.07371453 -0.20051658 -0.019386558 -0.2229681 -0.7168083 -0.1703714 0.009080848 -0.03842029
0.3269931 -0.5705366 0.15551095 -0.00087471737 -0.1043729 -0.1270099 -0.41002053 -0.045236256
0.0761853 -0.32688692 -0.6249349 -0.62114424 -0.13347538 0.021436075 0.3297046 -0.03756743
-0.06574302 -0.17561011 -0.20344438 0.087107815 -0.05141476 0.18624996 0.12264708 0.013510384
-0.04371747 -0.6129879 -0.5672336 -0.13422452 -0.34937018 -0.040274836 -0.15309638 0.3479205
-0.20308019 -0.0027082944 -0.2896882 -0.029962588 -0.14231347 -0.34999636 -0.11019968 -0.14180376
-0.5680287 -0.12336906 -0.16540666 -0.0010494965 0.052806076 -0.25589618 0.0358903 -0.37950203
0.23127669 0.004521732 -0.13730991 0.15158999 -0.0035186594 -0.19117239 -0.0052411025 -0.14627685
00000000: 44ba bc3d efb9 b6bc 8419 4b3e fe5c 3f3e
00000010: 24d5 023e f85e b03d 5270 2c3e 375a 743e
00000020: 6248 ca3d 1671 66bd 96c4 553e da6c 62ba
00000030: c387 2fbd 65ac c7bd d306 693e 91ed 0f3e
00000040: 604b b6bc be3f 9a3d f3b9 51bd 0e47 84bd
00000050: d723 7dbd 02b9 24bd 814e 863b 45cf 9c3e
00000060: 4437 13be 24e8 68bd 48f4 ed3b b0c3 973e
00000070: aa8a f53d e13a ff3c b9f9 bc3b 9700 033e
00000080: f22b fbbd d314 2c3e 6a00 9aba 54c8 0abd
00000090: 97f9 843e 74f0 d23c e6bf 653d 24d8 033d
000000a0: 428a 103b b743 663d ec1c b33c 5ebb 303e
000000b0: 07d6 5a3d 6f39 243e 111a c03d 7876 533b
000000c0: 85f8 c9b9 aae7 bc3d a354 f33d 75e8 603e
000000d0: b84f 883d e3a9 a93d 18c1 2e3e 9d3a 523e
000000e0: 4c29 79bc e150 6d3c 2d2b 613c 0fb5 7f3d
000000f0: 085b b13c 4456 5d3d fd56 ef3b 3b2f abbc
00000100: c477 1f3e 5a71 d7bc 2830 66be f0af 8ebd
00000110: b4ee 98bb 6aa7 93bc da94 2c3d 9b27 053f
00000120: 7a3d 82be d7e6 f63d 83ba 47be 8614 b3be
00000130: 2b95 1dbe 5cef f63d 5d96 c7bd f01c 3cbd
00000140: 0443 abbd 21f6 91bd b497 e33d 3925 80bd
00000150: 5c3f 80be 01ad 83bc 1d77 993d 0f47 3dbe
00000160: 4f62 473e 9f2d 943e f6cf a0bd 13a6 14bc
00000170: d6bb 563c 1eb4 2fbe 6b1e d0bc 43bb 8fbb
00000180: 2f11 cdba cfff 88bc 8323 893e dd5f 413d
00000190: d4a5 6dbe f0ee e43d 3785 17bd 23fd 07be
000001a0: 05cd 7bbd 9148 3ebe ac52 8d3d e12a b2bd
000001b0: 642e 373d 796a 63bd bb5c c5be 5f3f c0be
000001c0: 696a 1dbe 7198 283c 85bd 3ebc 11e4 c03c
000001d0: c75b dbbe 0a9f 4ebe cc58 87bb bec1 5cbe
000001e0: 3601 f4bd 7469 bcbc 796f 3ebe 0230 abbe
000001f0: 0e48 1d3d 4ba1 70be 2c8e 94be 7df2 e9bb
00000200: ac03 c13d 6542 933d a0c1 d2be 6d8f 56bd
00000210: 2a46 e03e 001d 703c 176e 46bc a1bf 823d
00000220: 199c 843b 5e97 de3c 1d4d 20be e93e bdbe
00000230: 2c20 cebd dc90 b93e 884f dcbd f625 cbbc
00000240: 389f e8bd 81de 65bd 5175 6d3c dac4 08bd
00000250: 501d aa3d 8f13 b2bd 3878 d9bd 0168 313c
00000260: df48 563d 3624 8ebd c0f3 9c3d b485 923e
00000270: 3039 0abe 6d36 6a3d eec0 edbd 2d6a 19bd
00000280: 9f51 873d 1467 7f3d 528a d13d 4088 cdbd
00000290: 7ab8 673e 950e 83bd 79f9 2e3e 4e28 b1bd
000002a0: d77b 8ebc 845a 5a3c 31e9 c23e 3d6a b03d
000002b0: 85c2 5c3c 3612 fdbb bc27 de3c b1bb 863d
000002c0: 0c58 0b3d a9fd 38bc 2103 273e 1e12 0a3e
000002d0: 6790 44be 9de9 f13d 7259 303d 2225 05be
000002e0: de5d 333e 91bc ceba 7666 a4bb 94c7 23be
000002f0: bb39 81bd fce4 43be 9e2c 0fbe f556 17bd
00000300: a5f7 963d 3854 4dbe 8fd0 9ebc c051 64be
00000310: c080 37bf d775 2ebe d6c7 143c 985e 1dbd
00000320: a46b a73e b00e 12bf 433e 1f3e 4a4d 65ba
00000330: 76c1 d5bd e20e 02be 36ee d1be a749 39bd
00000340: 0a07 9c3d b95d a7be bcfb 1fbf 4f03 1fbf
00000350: c5ad 08be b59a af3c 0bcf a83e 4ee0 19bd
00000360: 47a4 86bd 23d3 33be b953 50be 9565 b23d
00000370: 4998 52bd 4fb8 3e3e 642e fb3d a85a 5d3c
00000380: 1711 33bd c6ec 1cbf 3936 11bf 2772 09be
00000390: a6e0 b2be 3af7 24bd 4cc5 1cbe a322 b23e
000003a0: 41f4 4fbe a47d 31bb 0352 94be 1a74 f5bc
000003b0: 9fba 11be b932 b3be 5fb0 e1bd 0135 11be
000003c0: 546a 11bf eba8 fcbd 5d60 29be 428f 89ba
000003d0: 2f4b 583d d304 83be b501 133d 174e c2be
000003e0: ccd3 6c3e 0a2b 943b f89a 0cbe 683a 1b3e
000003f0: 4f99 66bb b2c2 43be 8ebd abbb 99c9 15be

fc2.bias f4 [64]
0.47442925 0.07086381 0.18639873 -0.09165126 -0.0954523 -0.065981895 0.11199052 -0.14905003
-0.043562952 0.07603177 0.092337705 0.081161 0.120603964 0.111716606 0.024089798 -0.048180155
-0.09597338 0.37772405 0.048979614 0.115942016 0.41222697 0.14362718 -0.1668846 -0.042428613
-0.20974202 -0.07475806 0.16786619 -0.0377962 -0.23637933 0.15470263 0.38573682 -0.078767546
0.2529996 0.23450749 -0.018078532 0.09752232 0.14050445 0.036716606 0.019751715 -0.16920012
-0.19587006 -0.04885412 -0.11745507 0.35714212 0.1437773 0.050774403 0.42821655 -0.21887979
-0.23643275 0.15240674 0.31414804 -0.1502819 0.029125469 -0.013598384 0.061502125 0.072858095
0.2839076 0.14163226 0.03411655 -0.10213721 -0.05034643 -0.1754248 -0.09156577 -0.04876193
00000000: 64e8 f23e 0c21 913d 4fdf 3e3e a8b3 bbbd
00000010: 7f7c c3bd 8421 87bd 495b e53d 92a0 18be
00000020: 116f 32bd 8bb6 9b3d 8d1b bd3d bd37 a63d
00000030: 36ff f63d adcb e43d f857 c53c 8e58 45bd
00000040: b18d c4bd 0c65 c13e d99e 483d 0273 ed3d
00000050: 6a0f d33e 0113 133e cce3 2abe a0c9 2dbd
00000060: 9dc6 56be c11a 99bd 1de5 2b3e 30d0 1abd
00000070: 6c0d 72be 5e6a 1e3e 4c7f c53e e150 a1bd
00000080: 2a89 813e bb22 703e 6e19 94bc c8b9 c73d
00000090: 66e0 0f3e 2764 163d 59ce a13c cc42 2dbe
000000a0: 2992 48be 421b 48bd 498c f0bd 55db b63e
000000b0: 5b3a 133e d2f8 4f3d 333f db3e 0622 60be
000000c0: 6d1b 72be 8310 1c3e 03d8 a03e 80e3 19be
000000d0: 8998 ee3c c2cb 5ebc a7e9 7b3d a036 953d
000000e0: 565c 913e 0c08 113e ccbd 0b3d 502d d1bd
000000f0: 0f38 4ebd 8fa2 33be d686 bbbd 97ba 47bd

fc3.weight f4 [4, 64]
0.17763759 0.0126422355 0.15453063 0.32217416 -0.044898048 0.18857089 0.14900866 -0.1512364
-0.061668925 0.26108545 0.24559136 0.41263545 0.062358607 -0.073176384 -0.20179507 0.357254
0.03437863 0.16560873 0.14793487 0.2558103 0.09076457 0.07389971 -0.21799146 -0.16578107
-0.14960432 0.031240523 0.21050584 0.23612277 -0.12884933 0.15174715 0.15358226 0.07468669
0.027550591 0.19794197 -0.22885165 0.15314224 0.15593669 -0.3707566 -0.291945 -0.40623614
-0.030800495 -0.15711683 -0.027398422 0.18437831 0.24671394 -0.07353706 0.19196354 -0.2556201
-0.19479556 0.24628308 0.15576588 -0.03254812 0.10201683 0.43298104 0.2561875 0.08898975
0.16262424 0.13908559 0.12720041 -0.28791672 0.1550162 0.16311216 -0.15149419 0.5019025
0.19951488 0.084350936 0.15486294 -0.30404013 -0.113111086 0.56713897 0.016641874 -0.21261929
-0.0054393806 0.4109932 0.44466633 0.5131773 0.09452884 0.00885232 -0.2688328 0.3959629
0.13651612 0.14867914 0.12475254 0.19148694 0.15876116 0.08927284 -0.0478805 -0.15623824
-0.22965005 0.03963176 0.22625299 0.17393585 -0.12002694 0.18334076 0.13134895 -0.08614415
0.07660609 0.32128516 -0.3047881 0.06273816 0.12135405 -0.0011836896 -0.10950441 -0.11114702
-0.025957642 0.06055226 -0.057387516 0.1935719 0.19584808 0.05835268 0.15397307 -0.078424186
-0.031594466 0.15235004 0.085800365 -0.04979768 0.07225399 0.41387898 0.7721388 0.12800384
0.09109609 0.117949754 0.12968813 -0.20589902 0.1988116 0.26877022 0.09013901 0.36942703
0.159655 0.35168245 0.2542497 0.14800006 -0.26130915 0.02521796 0.12994443 -0.09918938
-0.124128185 0.5634172 -0.17071682 0.45031708 0.06759314 0.2511244 0.39440104 0.30045772
-0.16752431 0.16431636 -0.25842312 0.1481831 0.1478725 0.11127014 -0.015509902 -0.045991376
-0.25472227 -0.22929734 -0.0029224285 0.25207373 -0.16217153 0.025207937 0.11821875 0.084980495
0.29316035 0.1855697 -0.29844767 0.077600494 0.10768981 -0.14484452 -0.24065365 -0.18598257
-0.04613751 0.028117267 0.02266878 0.16422473 0.24875244 0.124940306 0.12697077 -0.13223791
-0.287615 0.16737695 0.12544233 -0.26421022 0.01852523 0.39662603 0.79327226 0.1974048
0.11269941 0.027307248 0.24219356 0.00039263308 0.40639368 0.10397591 -0.0034329945 0.015924152
0.20503616 0.22202398 0.061733674 0.2561467 -0.221002 0.6666406 0.22977255 0.11645056
-0.13321728 0.19603962 0.6280328 0.40157884 0.08819769 0.048549525 0.30290163 0.49058452
0.5158019 0.17068319 0.117455974 0.18536292 0.18213563 0.21912064 0.18787321 -0.12629366
-0.31519485 -0.034972325 0.05500867 0.38721374 -0.11627304 -0.047570758 0.13526142 -0.07519895
0.068967365 0.12978785 -0.19010429 0.17135434 0.30721292 -0.28043988 -0.2310308 0.014221895
-0.15149616 -0.48191598 0.05230929 0.16155687 0.062902376 0.16452722 0.13964298 -0.1816912
0.01921042 0.088154376 0.11922724 -0.25126237 0.19780709 0.2324749 -0.25601897 0.10587043
0.03705684 0.18005197 0.22152816 -0.21178505 -0.11860084 -0.49018237 -0.17495397 0.4572288
00000000: a1e6 353e 6121 4f3c 473d 1e3e 03f4 a43e
00000010: 04e7 37bd ba18 413e ba95 183e b7dd 1abe
00000020: 8e98 7cbd feac 853e 4d7c 7b3e f444 d33e
00000030: bd6b 7f3d 80dd 95bd 5ea3 4ebe ffe9 b63e
00000040: 9bd0 0c3d 5695 293e 3d7c 173e 91f9 823e
00000050: c6e2 b93d bb58 973d 2739 5fbe 83c2 29be
00000060: e031 19be 20ec ff3c d88e 573e 2bca 713e
00000070: 14f1 03be 9b63 1b3e ab44 1d3e 56f5 983d
00000080: c7b1 e13c 4db1 4a3e 1658 6abe 52d1 1c3e
00000090: dead 1f3e cfd3 bdbe d179 95be 2ffe cfbe
000000a0: 5251 fcbc 3ce3 20be a872 e0bc abcd 3c3e
000000b0: 94a2 7c3e 999a 96bd 1792 443e a3e0 82be
000000c0: 7d78 47be a231 7c3e 1781 1f3e 2d51 05bd
000000d0: 33ee d03d b1af dd3e 022b 833e 4240 b63d
000000e0: f886 263e 746c 0e3e d340 023e d269 93be
000000f0: 91bc 1e3e e006 273e 4b21 1bbe af7c 003f
00000100: a14d 4c3e 2fc0 ac3d 6494 1e3e 26ab 9bbe
00000110: c9a6 e7bd 0530 113f 8a54 883c dfb8 59be
00000120: d53c b2bb b36d d23e 4eab e33e 965f 033f
00000130: 5698 c13d 5209 113c 74a4 89be a6bb ca3e
00000140: e2ca 0b3e 583f 183e 427e ff3d 2715 443e
00000150: 4992 223e aed4 b63d 581e 44bd ebfc 1fbe
00000160: 6229 6bbe ea54 223d ddae 673e 3d1c 323e
00000170: afd0 f5bd aebd 3b3e 5780 063e 586c b0bd
00000180: a7e3 9c3d 7d7f a43e 300d 9cbe dd7c 803d
00000190: 7988 f83d 0826 9bba d943 e0bd 0ca1 e3bd
000001a0: 1fa5 d4bc a605 783d 2c0f 6bbd b637 463e
000001b0: 668c 483e 3803 6f3d 1eab 1d3e dc9c a0bd
000001c0: 3369 01bd a601 1c3e 1ab8 af3d a7f8 4bbd
000001d0: e6f9 933d f2e7 d33e e3aa 453f 7013 033e
000001e0: 9690 ba3d a48f f13d f7cc 043e 31d7 52be
000001f0: 4595 4b3e 409c 893e cd9a b83d 8a25 bd3e
00000200: 9a7c 233e b90f b43e 042d 823e 548d 173e
00000210: 50ca 85be e595 ce3c 2710 053e cd23 cbbd
00000220: eb36 febd 1c3c 103f 64d0 2ebe f68f e63e
00000230: 466e 8a3d 6193 803e efee c93e 98d5 993e
00000240: 7e8b 2bbe 8c42 283e 0950 84be 50bd 173e
00000250: e36b 173e 99e1 e33d 3e1d 7ebc 7461 3cbd
00000260: f56a 82be eccc 6abe 3786 3fbb cf0f 813e
00000270: 4b10 26be e080 ce3c ac1c f23d 410a ae3d
00000280: 1d19 963e fc05 3e3e 22ce 98be 02ed 9e3d
00000290: 7a8c dc3d 1f52 14be e96d 76be 3772 3ebe
000002a0: b0fa 3cbd 2f56 e63c e1b3 b93c 872a 283e
000002b0: f6b8 7e3e b4e0 ff3d a004 023e 6069 07be
000002c0: 4642 93be dd64 2b3e f473 003e 9046 87be
000002d0: 39c2 973c 9112 cb3e e413 4b3f 7c24 4a3e
000002e0: f3ce e63d 73b3 df3c 9701 783e 52da cd39
000002f0: d512 d03e 52f1 d43d 17fc 60bb 5e73 823c
00000300: 00f5 513e 415a 633e 73dc 7c3d a925 833e
00000310: 594e 62be f5a8 2a3f 7f49 6b3e a27d ee3d
00000320: 1c6a 08be 9cbe 483e c2c6 203f be9b cd3e
00000330: fea0 b43d dedb 463d ec15 9b3e e52d fb3e
00000340: 980b 043f 93c7 2e3e c28c f03d c7cf 3d3e
00000350: c381 3a3e 2961 603e d661 403e 2053 01be
00000360: 3861 a1be 243f 0fbd c550 613d e140 c63e
00000370: 8f20 eebd 8ed9 42bd f881 0a3e e801 9abd
00000380: c33e 8d3d 1be7 043e b3aa 42be 8377 2f3e
00000390: 034b 9d3e d195 8fbe 5793 6cbe f302 693c
000003a0: cf21 1bbe b1bd f6be 4442 563d 2a6f 253e
000003b0: f6d2 803d d379 283e 92fe 0e3e 420d 3abe
000003c0: 2c5f 9d3c 488a b43d 692d f43d 76a5 80be
000003d0: f18d 4a3e e60d 6e3e eb14 83be 99d2 d83d
000003e0: eac8 173d 8b5f 383e 47d8 623e 2ede 58be
000003f0: ffe4 f2bd 2ff9 fabe 2227 33be e519 ea3e

fc3.bias f4 [4]
0.32375732 0.19375272 0.26503545 0.27444777
00000000: 85c3 a53e 1d67 463e bab2 873e 6b84 8c3e
